Optimizer: sgd

Layer (type)                 Output Shape              Param #
=================================================================
conv2d_1 (Conv2D)            (None, 32, 22, 22)        320
_________________________________________________________________
activation_1 (Activation)    (None, 32, 22, 22)        0
_________________________________________________________________
max_pooling2d_1 (MaxPooling2 (None, 32, 11, 11)        0
_________________________________________________________________
conv2d_2 (Conv2D)            (None, 32, 9, 9)          9248
_________________________________________________________________
activation_2 (Activation)    (None, 32, 9, 9)          0
_________________________________________________________________
max_pooling2d_2 (MaxPooling2 (None, 32, 4, 4)          0
_________________________________________________________________
conv2d_3 (Conv2D)            (None, 64, 2, 2)          18496
_________________________________________________________________
activation_3 (Activation)    (None, 64, 2, 2)          0
_________________________________________________________________
max_pooling2d_3 (MaxPooling2 (None, 64, 1, 1)          0
_________________________________________________________________
flatten_1 (Flatten)          (None, 64)                0
_________________________________________________________________
dense_1 (Dense)              (None, 64)                4160
_________________________________________________________________
activation_4 (Activation)    (None, 64)                0
_________________________________________________________________
dropout_1 (Dropout)          (None, 64)                0
_________________________________________________________________
dense_2 (Dense)              (None, 39)                2535
=================================================================
Total params: 34,759
Trainable params: 34,759
Non-trainable params: 0

             precision    recall  f1-score   support

          0       0.91      0.87      0.89        89
          1       0.90      0.93      0.91       120
          2       0.97      0.93      0.95       326
          3       0.92      0.97      0.94        78
…
